kd/models/student_net.pth (torch_old, 438581 bytes, 6 tensors)

fc1.weight f4 [128, 784]
-0.03919297 -0.03633109 -0.044879373 -0.031116161 -0.048437312 -0.007543059 -0.01780203 -0.010915096
0.0037644953 -0.040896837 -0.051212594 -0.05226286 -0.0040789833 -0.025996538 -0.027059775 -0.014625958
-0.0137062315 -0.045209285 0.0048979567 -0.037694704 -0.034214936 -0.010970722 -0.0068543362 -0.03927752
0.011177179 -0.054339334 -0.041478366 0.012458547 -0.011713027 -0.050369468 0.013761598 -0.040644627
-0.046897545 0.008714746 -0.0019427008 -0.03538195 0.027638834 0.0010312175 -0.007888093 -0.031034976
-0.021809114 0.015038835 -0.030137809 0.0048468253 0.011221515 -0.027463105 0.008393062 -0.030177018
-0.014941582 -0.006879926 -0.016326563 0.017124562 -0.029472953 -0.044197723 -0.026799899 -0.010926305
-0.05525424 0.013685111 -0.019177029 -0.025476137 -0.049875543 -0.02772571 -0.022659305 -0.014957068
0.010098606 0.0051780464 0.05465152 0.027102321 0.07309455 0.056807283 0.019761706 0.0036844984
0.010966172 0.052008078 0.014339462 0.036416043 0.03683223 0.033977557 0.02292103 0.012233829
-0.04855698 0.005482645 -0.029497754 -0.02538731 -0.046022315 -0.02892766 0.0056215744 -0.005061329
-0.012099998 -0.024477884 -0.011572667 0.014307776 0.014624133 0.101334035 0.03572725 0.036123563
0.052782748 0.07863048 0.067154475 0.006985145 0.033578917 0.031161878 -0.012406931 0.023576057
0.008318193 0.014854977 0.07544272 0.0019347544 0.0028814776 -0.03838704 -0.031178143 -0.03588889
-0.042426575 -0.0002587908 -0.0108481925 -0.031146867 0.0028406156 0.006419558 -0.0014903011 0.013868015
0.021527942 0.09281547 0.05643633 0.041864723 0.019447435 0.024933713 0.008406845 0.008789197
0.014248483 -0.0013421901 -0.022744726 0.008287263 -0.0323865 -0.029092085 -0.051328424 -0.00995262
0.000676439 -0.045192238 -0.001373245 0.009550025 0.014849327 -0.042766955 -0.0076495293 -0.048422482
0.014959293 -0.035289638 -0.011696924 -0.042956922 0.012593028 -0.040482447 -0.017047813 -0.07508331
-0.03905919 -0.011644964 -0.015046945 0.0075102197 0.010174935 0.035646286 0.0601754 0.00083457056
-0.010368502 0.0069919387 -0.061481178 -0.022749292 -0.066363685 0.0008856865 0.012500141 0.0049959254
-0.02827272 -0.03893176 -0.05210723 -0.02874114 -0.035528537 -0.03403418 -0.07219039 -0.036848396
-0.09525695 -0.10601227 -0.12600389 -0.07422977 -0.06187789 -0.054685052 -0.008766865 0.006861182
0.005784593 -0.031221926 -0.043633778 -0.016145607 -0.0074940864 -0.06318063 -0.025370432 -0.032084424
-0.028169278 0.0037560011 -0.02651274 -0.035744376 -0.0014012862 -0.021571126 -0.018607436 -0.056550164
-0.02957601 -0.067806974 -0.05450597 -0.05027899 -0.024593564 -0.08198082 -0.0700492 -0.0430722
-0.017593706 -0.046794653 -0.053356133 -0.021771811 -0.007691735 -0.018776339 -0.05913636 -0.019212268
-0.031540625 -0.032565955 -0.035057466 -0.11453899 -0.04540017 0.011977856 -0.003092868 0.017670179
-0.044754665 0.013440956 -0.018225681 -0.04084559 -0.057154875 -0.03502459 -0.043757927 0.024626032
-0.03717947 0.004285255 -0.024025304 -0.040179905 -0.018491745 0.0072012744 -0.00040051917 -0.047599528
-0.060334343 -0.025719922 -0.03757776 -0.03960278 -0.04751226 -0.047297966 -0.048848577 -0.045005668
-0.09845675 -0.046233986 -0.005540628 -0.043805998 -0.017559273 0.0029947232 0.014578352 -0.06402597
00000000: cf88 20bd e9cf 14bd 6fd3 37bd 52e7 febc
00000010: 3466 46bd c42b f7bb 90d5 91bc 3bd5 32bc
00000020: c0b5 763b 7183 27bd 4cc4 51bd 9511 56bd
00000030: fea8 85bb b1f6 d4bc 76ac ddbc b7a1 6fbc
00000040: 1a90 60bc 5f2d 39bd 0a7f a03b c365 1abd
00000050: f624 0cbd 8bbe 33bc 579a e0bb 77e1 20bd
00000060: 7d20 373c ec92 5ebd 38e5 29bd ef1e 4c3c
00000070: ffe7 3fbc 3750 4ebd 5378 613c fb7a 26bd
00000080: a417 40bd 4bc8 0e3c 39a2 feba aaec 10bd
00000090: d66a e23c eb29 873a 0f3d 01bc 103d febc
000000a0: 07a9 b2bc 7265 763c 91e3 f6bc 1ed2 9e3b
000000b0: 72da 373c 4efa e0bc 0e83 093c cb35 f7bc
000000c0: 8acd 74bc 0171 e1bb 49bf 85bc cf48 8c3c
000000d0: 4371 f1bc ac08 35bd 768b dbbc 3f04 33bc
000000e0: 4552 62bd 8437 603c 2519 9dbc 55b3 d0bc
000000f0: 4c4a 4cbd 0721 e3bc 02a0 b9bc 7d0e 75bc
00000100: a074 253c 9aac a93b 46da 5f3d b005 de3c
00000110: 98b2 953d c1ae 683d 4de3 a13c a077 713b
00000120: 76ab 333c 6c06 553d 10f0 6a3c fd28 153d
00000130: 64dd 163d 0d2c 0b3d e2c4 bb3c 6670 483c
00000140: afe3 46bd c2a7 b33b 46a5 f1bc 0cf9 cfbc
00000150: e581 3cbd b3f9 ecbc 2f35 b83b 81d9 a5bb
00000160: 123f 46bc d885 c8bc 499b 3dbc 296b 6a3c
00000170: 0f9a 6f3c 3888 cf3d bd56 123d 4df6 133d
00000180: b932 583d 0409 a13d 4988 893d a5e3 e43b
00000190: 0c8a 093d 3247 ff3c 7146 4bbc 9322 c13c
000001a0: 0849 083c 4a62 733c b681 9a3d 9697 fd3a
000001b0: 2cd7 3c3b bb3b 1dbd 4e69 ffbc 3b00 13bd
000001c0: 7dc7 2dbd 50ae 87b9 9ebc 31bc b727 ffbc
000001d0: 9f29 3a3b 285b d23b 3556 c3ba ac36 633c
000001e0: 5e5b b03c 0a16 be3d c829 673d 587a 2b3d
000001f0: 3a50 9f3c c941 cc3c ddbc 093c 9000 103c
00000200: 7872 693c 6dec afba 2653 babc 4dc7 073c
00000210: b5a7 04bd 8652 eebc c13d 52bd 5010 23bc
00000220: 0e53 313a 7f1b 39bd 75fe b3ba b577 1c3c
00000230: 974a 733c 672c 2fbd e7a8 fabb a756 46bd
00000240: d317 753c de8b 10bd 75a4 3fbc 99f3 2fbd
00000250: fd52 4e3c ecd0 25bd dba7 8bbc 47c5 99bd
00000260: 87fc 1fbd 85ca 3ebc 7687 76bc 4a18 f63b
00000270: c5b4 263c d701 123d 7b7a 763d 15c7 5a3a
00000280: a6e0 29bc a21c e53b b0d3 7bbd b95c babc
00000290: afe9 87bd 6a2d 683a 64cd 4c3c dcb4 a33b
000002a0: 319c e7bc e976 1fbd 646e 55bd 8a72 ebbc
000002b0: 5f86 11bd 6d67 0bbd 8ed8 93bd 58ee 16bd
000002c0: 1316 c3bd f61c d9bd 2a07 01be c705 98bd
000002d0: ac73 7dbd 6ffd 5fbd e6a2 0fbc c4d3 e03b
000002e0: af8c bd3b 20c5 ffbc 55b9 32bd cb43 84bc
000002f0: f490 f5bb d964 81bd a7d5 cfbc f56a 03bd
00000300: 42c3 e6bc 3e27 763b 3f31 d9bc b268 12bd
00000310: 5dab b7ba eeb5 b0bc 9f6e 98bc 25a1 67bd
00000320: 6349 f2bc 62de 8abd a741 5fbd 58f1 4dbd
00000330: 7178 c9bc 8fe5 a7bd f475 8fbd 7a6c 30bd
00000340: ad20 90bc c0ab 3fbd f68b 5abd cc5a b2bc
00000350: f30a fcbb d6d0 99bc f838 72bd 0c63 9dbc
00000360: be30 01bd e163 05bd 6b98 0fbd 6b93 eabd
00000370: 87f5 39bd c53e 443c b7b1 4abb 0dc1 903c
00000380: ab50 37bd 7537 5c3c 064e 95bc b54d 27bd
00000390: 3b1b 6abd f275 0fbd 833b 33bd 88bc c93c
000003a0: 8049 18bd 536b 8c3b b7d0 c4bc af93 24bd
000003b0: 007c 97bc abf8 eb3b c6fc d1b9 b9f7 42bd
000003c0: 2521 77bd 96b2 d2bc 23eb 19bd 8636 22bd
000003d0: 379c 42bd 83bb 41bd 7215 48bd dd57 38bd
000003e0: b1a3 c9bd d95f 3dbd 288e b5bb eb6d 33bd
000003f0: 77d8 8fbc 1e43 443b 0ada 6e3c 0c20 83bd

fc1.bias f4 [128]
-0.00669917 0.002959967 0.059206825 0.004435371 0.004248059 -0.008725836 0.01628561 0.0014287141
-0.00091464294 -0.012903429 0.00061378203 -0.017933818 -0.02502716 -0.0076355254 0.019679409 -0.028757015
-0.008082805 0.015754605 0.002910875 -0.0049733613 0.0124109825 0.020543195 0.0068284012 -0.0059711225
0.049098972 0.021042243 -0.0108579565 0.029974734 0.010781186 -0.0044843084 0.01346898 0.019673577
-0.0048345416 0.031893007 0.058524314 0.011588906 -0.026086718 0.0402037 0.014280034 0.006190627
0.020874731 0.048575148 -0.008856671 -0.039768558 0.0746383 -0.025712077 -0.0036111213 0.036684223
0.020936651 0.042160783 -0.0044641225 0.024001809 -0.008225864 0.017285245 -3.8837523e-05 0.020845646
0.017988091 0.039037485 0.042287983 -0.00672787 0.023784578 0.042482093 0.0373841 -0.055711243
0.010611829 -0.013188487 -0.01317527 0.04810407 -0.007848046 -0.0099426005 -0.015451595 0.035381626
0.01196791 0.016797973 0.06059332 0.0036767288 -0.0007221144 0.046032876 0.00087995443 -0.0340313
-0.027654754 -0.00079394714 -0.033596583 0.005882527 0.016732682 0.03937482 0.028541785 0.006488069
0.0021042617 -0.012741285 -0.009497093 0.0046144077 0.03715481 0.037578635 0.03601325 0.031492107
0.023522194 0.019177284 0.0467365 0.05073876 -0.005757442 0.045149766 0.043041777 0.011017908
-0.021655694 -0.008445071 0.037536435 -0.0062697693 0.07186798 -0.03272842 0.02202929 -0.022795254
0.020733621 -0.010507565 0.054601118 0.009434841 -0.014535654 0.02794625 -0.01781723 -0.0049030515
-0.0053795343 -0.021678263 -0.021772433 -0.018827882 0.0016904217 0.015042931 -0.038875706 0.0017586007
00000000: b684 dbbb 01fc 413b db82 723d 9756 913b
00000010: 4d33 8b3b cff6 0ebc 6669 853c b143 bb3a
00000020: a6c4 6fba e768 53bc 37e6 203a f1e9 92bc
00000030: c205 cdbc 6e33 fabb b636 a13c d593 ebbc
00000040: be6d 04bc cd0f 813c 61c4 3e3b 94f7 a2bb
00000050: 6f57 4b3c 344a a83c c8c0 df3b 68a9 c3bb
00000060: 011c 493d c860 ac3c 92e5 31bc 938d f53c
00000070: 92a3 303c 1bf1 92bb ffac 5c3c 7b2a a13c
00000080: 136b 9ebb 3ea2 023d 31b7 6f3d 65df 3d3c
00000090: d0b3 d5bc a3ac 243d cef6 693c beda ca3b
000000a0: 7c01 ab3c bcf6 463d 921b 11bc 5be4 22bd
000000b0: f7db 983d 22a2 d2bc 90a8 6cbb 3242 163d
000000c0: 5783 ab3c c9b0 2c3d c647 92bb 719f c43c
000000d0: c6c5 06bc c999 8d3c 79e5 22b8 7dc4 aa3c
000000e0: c35b 933c c5e5 1f3d 2a36 2d3d 7775 dcbb
000000f0: e0d7 c23c b401 2e3d 1220 193d 7931 64bd
00000100: 3ddd 2d3c 8614 58bc 16dd 57bc c608 453d
00000110: 1795 00bc 4ae6 22bc b028 7dbc 53ec 103d
00000120: 0e15 443c e79b 893c b330 783d 46f5 703b
00000130: 474c 3dba f88c 3c3d beac 663a 6864 0bbd
00000140: 398c e2bc e420 50ba 929c 09bd 37c2 c03b
00000150: fa12 893c 7e47 213d 76d0 e93c de99 d43b
00000160: a7e7 093b d3c0 50bc b299 1bbc 7534 973b
00000170: a42f 183d 0eec 193d a182 133d defd 003d
00000180: 9eb1 c03c ae19 9d3c c66e 3f3d 72d3 4f3d
00000190: eda8 bcbb f6ee 383d 934c 303d 7584 343c
000001a0: 4867 b1bc 325d 0abc cebf 193d a372 cdbb
000001b0: 852f 933d 3c0e 06bd c576 b43c 1dbd babc
000001c0: 8ed9 a93c ec27 2cbc 6ca5 5f3d 9794 1a3c
000001d0: f426 6ebc 89ef e43c 71f5 91bc c7a9 a0bb
000001e0: ce46 b0bb 9d96 b1bc 1a5c b2bc ee3c 9abc
000001f0: 2491 dd3a a076 763c 223c 1fbd d980 e63a

fc2.weight f4 [64, 128]
0.042765386 0.07688082 -0.051889934 -0.11843078 0.11908308 -0.011073132 0.030128447 -0.00061727886
-0.064856544 0.054549206 0.06067112 -0.06894486 -0.067200854 0.016161872 0.06784192 -0.012411514
0.11875731 0.05437681 0.09083059 0.16968137 0.073982194 0.022186026 0.0036263138 0.084622264
0.10485469 0.06881067 -0.02660072 0.09287798 -0.15900356 -0.05587595 -0.07092254 0.08503427
-0.024365865 -0.052821882 0.09740815 -0.05217267 -0.13004701 0.016011545 0.027434023 -0.08099319
0.1613377 0.112431645 0.008497786 -0.018980172 -0.019988013 0.08196768 0.16049053 0.11851868
-0.11975075 -0.0798919 -0.048643164 0.10952607 -0.0144756725 -0.035783995 -0.06477479 -0.0028810673
-0.049036767 -0.05776507 -0.029724998 -0.1165322 0.04447785 -0.031913497 0.0077619487 0.035337992
-0.040411044 0.13634422 -0.22306816 0.023395864 -0.029060034 -0.063625015 -0.17201293 0.049307328
-0.01260944 0.047214746 0.097199164 0.012488133 0.07276005 -0.07245202 -0.0013198666 0.11107882
-0.032009587 -0.014472845 -0.10982173 -0.016759004 0.07821184 -0.026981875 -0.023333455 0.03369936
-0.059032205 -0.004097886 -0.036512725 -0.03409006 0.066310346 0.12110993 0.018904233 0.093776695
-0.050831452 0.06382718 0.058056396 -0.01820905 0.07218092 0.030452682 -0.057303596 0.14573349
0.10669916 0.13451321 -0.04485275 0.005254388 -0.060666215 -0.09583479 -0.018833872 -0.11893095
-0.07449202 -0.014631809 0.02491544 -0.044232965 -0.11193225 0.031846385 -0.0033689116 0.017240068
-0.033785257 0.16262534 -0.012911025 0.039058194 -0.036081884 0.055672746 0.065992996 -0.00085048185
-0.013195826 0.027073804 0.08071133 -0.07072309 0.06223285 -0.04422301 -0.028601263 -0.07319382
0.13964526 -0.07009654 -0.08449586 0.023843564 -0.0012422956 -0.029657776 0.14725904 -0.11300616
0.13658462 -0.06489273 0.1151003 -0.06203824 -0.016407322 0.024215087 -0.16446924 -0.0053892317
0.04020257 0.053155854 -0.1280365 0.09109468 0.054049246 0.16590835 0.005850145 -0.10403104
0.02219785 -0.03547896 -0.08615453 0.0693707 -0.09129412 -0.025517037 -0.038338877 -0.102843575
0.00050831854 0.09695905 0.023033066 0.06587555 0.041605826 0.07876006 0.067132175 0.06282244
-0.2882422 -0.075527504 -0.03240216 0.06551568 -0.017224934 -0.17877059 0.1578675 -0.109448574
-0.037805144 0.13032357 0.035508756 -0.014466318 -0.014132655 0.073968045 0.034484506 0.02402177
0.117256634 0.21585137 -0.09546441 -0.082220614 0.02692657 -0.09160368 -0.04715485 -0.034059957
0.026597595 0.027795106 0.034037035 -0.07630318 -0.012377934 0.084750324 0.12774405 0.03808979
-0.06198041 -0.04522979 -0.071368456 -0.10092648 0.026395492 0.05226305 0.04135033 -0.028142981
0.024694307 0.026831549 -0.11604511 -0.08903348 0.08476435 0.069253966 -0.007909798 0.0111825345
-0.0064780414 -0.10558446 -0.021435855 0.11556452 -0.08033926 -0.11427523 0.026107185 -0.01518109
-0.036093872 -0.12378275 -0.031757504 -0.157683 0.053473786 -0.116314046 0.04102343 0.016404113
-0.14989507 0.072440214 -0.00019587185 -0.062010378 0.049369864 -0.046904493 -0.08711186 0.09773352
-0.034557033 0.09443831 -0.0845786 0.053936817 0.06360622 0.050764848 -0.027138447 0.060228795
00000000: c22a 2f3d b173 9d3d 8a8a 54bd d68b f2bd
00000010: d4e1 f33d 156c 35bc efcf f63c e2d0 21ba
00000020: 82d3 84bd fd6e 5f3d 4882 783d f632 8dbd
00000030: 9aa0 89bd e765 843c b4f0 8a3d aa59 4bbc
00000040: 0837 f33d 38ba 5e3d 6305 ba3d f4c0 2d3e
00000050: fa83 973d 78bf b53c 73a7 6d3b 704e ad3d
00000060: 0ebe d63d 9cec 8c3d c1e9 d9bc cf36 be3d
00000070: d4d1 22be 2ede 64bd d63f 91bd 7326 ae3d
00000080: ec9a c7bc c25b 58bd ed7d c73d 02b3 55bd
00000090: 0b2b 05be a52a 833c 51bd e03c c2df a5bd
000000a0: b635 253e 9042 e63d 4c3a 0b3c 4e7c 9bbc
000000b0: e7bd a3bc acde a73d a157 243e ecb9 f23d
000000c0: e23f f5bd 5d9e a3bd 0e3e 47bd 344f e03d
000000d0: 5f2b 6dbc 3d92 12bd a5a8 84bd 4ad0 3cbb
000000e0: c7da 48bd 119b 6cbd d781 f3bc 6fa8 eebd
000000f0: 682e 363d bab7 02bd f257 fe3b 92be 103d
00000100: 0d86 25bd d29d 0b3e fb6b 64be afa8 bf3c
00000110: 4f0f eebc d54d 82bd 2824 30be 7bf6 493d
00000120: d397 4ebc 4064 413d 5b10 c73d 079b 4c3c
00000130: 3903 953d ba61 94bd 60ff acba 4b7d e33d
00000140: 7c1c 03bd 831f 6dbc 37ea e0bd 2e4a 89bc
00000150: 872d a03d 1809 ddbc cd25 bfbc 5708 0a3d
00000160: c1cb 71bd 8f47 86bb 5e8e 15bd 05a2 0bbd
00000170: b8cd 873d 7c08 f83d 0ddd 9a3c ff0d c03d
00000180: a434 50bd d3b7 823d 8bcc 6d3d 252b 95bc
00000190: 97d3 933d e777 f93c 2db7 6abd 293b 153e
000001a0: 1785 da3d d5bd 093e 84b7 37bd 002d ac3b
000001b0: 237d 78bd 0845 c4bd 7e49 9abc 1292 f3bd
000001c0: 468f 98bd 41ba 6fbc 771b cc3c a02d 35bd
000001d0: bc3c e5bd 5b71 023d f5c8 5cbb 0b3b 8d3c
000001e0: 6962 0abd 4287 263e c488 53bc 7cfb 1f3d
000001f0: 99ca 13bd 1b09 643d 5627 873d dff2 5eba
00000200: 4e33 58bc e2c9 dd3c fb4b a53d 44d7 90bd
00000210: dfe7 7e3d 3023 35bd 324d eabc a4e6 95bd
00000220: 2bff 0e3e c68e 8fbd 2a0c adbd 9453 c33c
00000230: 86d4 a2ba ddf4 f2bc 13cb 163e c66f e7bd
00000240: d7dc 0b3e 7be6 84bd b5b9 eb3d cf1b 7ebd
00000250: a668 86bc b85e c63c a06a 28be 2798 b0bb
00000260: 73ab 243d f4b9 593d 001c 03be d98f ba3d
00000270: be62 5d3d e1e3 293e 93b2 bf3b 3a0e d5bd
00000280: 44d8 b53c 6352 11bd c971 b0bd 3a12 8e3d
00000290: 69f8 babd 1b09 d1bc 3a09 1dbd a79f d2bd
000002a0: ae40 053a 7792 c63d d7af bc3c c3e9 863d
000002b0: df6a 2a3d f44c a13d 987c 893d 0da9 803d
000002c0: 7b94 93be 2aae 9abd 21b8 04bd 162d 863d
000002d0: 4e1b 8dbc a30f 37be 05a8 213e 9326 e0bd
000002e0: 91d9 1abd 8b73 053e a171 113d 2304 6dbc
000002f0: a78c 67bc 8f7c 973d a03f 0d3d 4ec9 c43c
00000300: 3f24 f03d 2408 5d3e d882 c3bd 4863 a8bd
00000310: 1c95 dc3c b69a bbbd 7225 41bd 7482 0bbd
00000320: 33e3 d93c 90b2 e33c 6b6a 0b3d d744 9cbd
00000330: d1cc 4abc 9491 ad3d 56cf 023e 0a04 1c3d
00000340: 2cdf 7dbd df42 39bd a029 92bd 8bb2 cebd
00000350: 5c3b d83c c811 563d f75e 293d 1c8c e6bc
00000360: b74b ca3c d6cd db3c 0fa9 edbd 2f57 b6bd
00000370: ee98 ad3d 06d5 8d3d 1998 01bc f336 373c
00000380: c045 d4bb aa3c d8bd 3f9a afbc 17ad ec3d
00000390: e988 a4bd 2209 eabd bcde d53c 1bba 78bc
000003a0: 2bd7 13bd cf81 fdbd 2814 02bd a777 21be
000003b0: 5407 5b3d 0f36 eebd 2f08 283d eb61 863c
000003c0: 187e 19be 895b 943d f362 4db9 98fe 7dbd
000003d0: 0e38 4a3d ed1e 40bd b467 b2bd 8328 c83d
000003e0: ad8b 0dbd df68 c13d 8c37 adbd daec 5c3d
000003f0: fa43 823d cdee 4f3d 7351 debc 78b2 763d

fc2.bias f4 [64]
-0.026951892 -0.06963918 -0.058173656 -0.06394607 -0.0016590846 0.038307358 -0.07678997 0.03402121
-0.008204913 0.095908254 0.030786924 -0.019608922 -0.030224329 -0.016254958 0.10111218 -0.035146628
-0.06061643 0.047664914 -0.05371295 0.045471266 -0.011452667 0.08344049 -0.066459686 0.01401224
0.044776484 -0.01829055 -0.04596615 -0.026132846 0.029834004 0.056244858 0.0047011734 0.009918973
0.062265016 0.016406529 0.05988428 -0.0033123025 0.017013175 -0.004242562 -0.054345954 0.077991575
0.01773963 -0.07022 -0.043105476 0.10910199 0.020865671 -0.07408373 0.08623749 -0.04774394
0.05793117 0.097169936 0.11412688 0.08964926 -0.008293446 0.0015556433 0.10859476 0.07327468
-0.054590177 0.06873312 0.10588406 -0.052237257 0.06361526 0.07707945 0.041730035 0.059610125
00000000: 37ca dcbc fd9e 8ebd 8047 6ebd 28f6 82bd
00000010: a475 d9ba 2de8 1c3d 0f44 9dbd d359 0b3d
00000020: e66d 06bc 8c6b c43d dc34 fc3c e4a2 a0bc
00000030: 0399 f7bc 1e29 85bc e713 cf3d e9f5 0fbd
00000040: ef48 78bd 493c 433d 1c02 5cbd 1440 3a3d
00000050: f8a3 3bbc d9e2 aa3d 041c 88bd 9893 653c
00000060: 8c67 373d 10d6 95bc 0047 3cbd 8d14 d6bc
00000070: 7166 f43c 0261 663d 4d0c 9a3b 3083 223c
00000080: 9a09 7f3d fc66 863c 3849 753d 3713 59bb
00000090: 375f 8b3c 3105 8bbb dd99 5ebd 0cba 9f3d
000000a0: b352 913c 81cf 8fbd 5e8f 30bd dd70 df3d
000000b0: 7cee aa3c 36b9 97bd 489d b03d 268f 43bd
000000c0: 3c49 6d3d 0801 c73d 5bbb e93d 089a b73d
000000d0: 3ce1 07bc bae6 cb3a ee66 de3d 0911 963d
000000e0: f399 5fbd f3c3 8c3d bed9 d83d bcf6 55bd
000000f0: b848 823d d5db 9d3d 1ded 2a3d bf29 743d

fc3.weight f4 [10, 64]
0.058199644 0.03495485 0.15121359 0.14920643 -0.030662732 0.023929404 0.086191975 0.00859118
0.04015826 -0.007076821 0.13449869 -0.005675303 0.10069984 -0.03104001 -0.103656456 -0.04927215
-0.04549439 0.018608283 0.12551402 0.09375226 0.13187566 -0.21160822 0.16620378 0.09783117
-0.15274662 -0.17762724 0.097259164 0.07256206 -0.10571276 -0.21368414 0.010242881 0.11214058
-0.105241224 -0.028766401 -0.011625211 0.009360655 -0.10591726 -0.08597101 -0.10032383 0.14786498
-0.1519128 0.14657655 0.12864473 0.061049175 0.16705054 -0.043314897 0.17452386 -0.012700476
-0.028462779 -0.10181957 0.1590648 0.030670218 0.10889046 -0.19416398 0.12656869 -0.10153558
-0.14623721 -0.08010525 -0.10735698 -0.03282557 0.14947563 -0.18862237 0.050519194 0.05555799
-0.1686117 -0.0766742 -0.0032772326 0.14229581 -0.039615337 0.066343114 0.11784867 0.04653294
0.1575423 0.08272344 -0.14163238 0.0925153 -0.00014764359 0.009212554 0.06162479 0.13094662
0.16159242 0.10397008 -0.16018501 0.017074779 -0.1215365 0.15866207 0.039489817 0.13181151
-0.26988658 -0.043872774 0.13188286 -0.19445829 -0.021472476 0.21066763 0.087251686 0.16539389
0.08322919 -0.099486366 0.0877485 0.06967923 -0.11403217 -0.024049563 -0.10421819 -0.11563682
0.0036830548 0.13047881 -0.038350396 0.08204051 0.0905094 -0.064614736 0.081200026 0.14962399
-0.08527846 0.15189537 -0.04727606 -0.2061557 0.066900745 0.04675506 -0.2392918 0.12429785
-0.13749845 -0.008483239 -0.08304698 0.17680497 -0.13959946 -0.092010304 0.103184536 0.12896618
0.15841332 -0.011330011 -0.15331808 -0.03749461 0.08299864 0.10054774 0.03533005 0.030826906
0.19811107 -0.013487972 0.03917675 -4.1008236e-05 -0.066891395 0.14698446 0.13948978 -0.05127929
0.08422976 0.078779235 -0.17965148 0.12857947 0.12403338 0.066868894 -0.049271178 -0.043020442
0.031385135 -0.046079963 0.06321671 -0.091187894 0.14171542 0.16003332 0.11179027 -0.098138586
-0.0020165604 -0.20180333 0.13967218 -0.017657 0.0561565 -0.1377833 -0.1696547 -0.12118926
-0.1363621 -0.16912045 0.3024323 0.13440394 -0.030512862 -0.036879968 0.16012742 0.20357522
0.12292364 -0.13141121 0.10550131 0.08929659 -0.059135992 -0.065418884 0.07519001 -0.09906573
-0.10257223 -0.11831856 0.15031913 0.06903916 0.049817804 0.1944623 0.05395283 -0.23542102
-0.008014349 -0.12707391 -0.23107313 0.059985217 0.09912419 -0.0033542265 0.09709759 0.044665717
0.00332603 0.06753054 0.04903071 0.17035314 0.065437496 0.080380686 0.08950508 0.124124706
-0.13184163 -0.116947375 0.15280204 0.068498574 -0.11058452 -0.11629933 -0.20258047 0.007127672
-0.14426291 0.12976605 -0.020643909 0.023577403 0.13864082 -0.124876186 0.108503334 0.2103703
0.17111966 0.10254044 -0.10112047 0.16384311 0.08688998 -0.17362025 0.15386811 -0.0633401
-0.08379709 -0.14628673 0.22630356 0.08906322 -0.09953056 -0.07197476 0.13759406 -0.2657376
0.089529105 -0.1953747 0.0060892254 0.23932806 0.07228129 0.23183128 -0.08884526 -0.18356864
-0.045092985 -0.0031848385 0.065225214 -0.15918654 0.11033841 0.061470743 -0.21767797 0.117872946
00000000: c062 6e3d d12c 0f3d bcd7 1a3e 92c9 183e
00000010: 6930 fbbc 9907 c43c 6b85 b03d 05c2 0c3c
00000020: fd7c 243d ade4 e7bb 06ba 093e e4f7 b9bb
00000030: b83b ce3d 9e47 febc d649 d4bd 98d1 49bd
00000040: 5358 3abd 6670 983c bf86 003e 2f01 c03d
00000050: 6a0a 073e d3af 58be 5331 2a3e b55b c83d
00000060: 9c69 1cbe eae3 35be d02f c73d 6b9b 943d
00000070: ee7f d8bd 04d0 5abe c2d1 273c f6a9 e53d
00000080: b688 d7bd 84a7 ebbc ab77 3ebc 6f5d 193c
00000090: 26eb d8bd 9211 b0bd 9576 cdbd eb69 173e
000000a0: 078f 1bbe 2a18 163e 72bb 033e b30e 7a3d
000000b0: 4c0f 2b3e f66a 31bd 62b6 323e a815 50bc
000000c0: c62a e9bc c786 d0bd e2e1 223e 1c40 fb3c
000000d0: f601 df3d ecd2 46be 399b 013e e3f1 cfbd
000000e0: 35bf 15be 390e a4bd fadd dbbd 1b74 06bd
000000f0: 2410 193e 3926 41be 37ed 4e3d c690 633d
00000100: 8ca8 2cbe 5d07 9dbd d7c6 56bb feb5 113e
00000110: b143 22bd e6de 873d a55a f13d 5399 3e3d
00000120: c552 213e e86a a93d 1408 11be a978 bd3d
00000130: c6d0 1ab9 41f0 163c 476a 7c3d df16 063e
00000140: 7c78 253e 44ee d43d 8a07 24be 68e0 8b3c
00000150: 21e8 f8bd 4f78 223e 13c0 213d 99f9 063e
00000160: 932e 8abe f0b3 33bd 4d0c 073e 1320 47be
00000170: 0ce7 afbc 41b9 573e 03b1 b23d 045d 293e
00000180: 1174 aa3d 82bf cbbd 7cb5 b33d fcb3 8e3d
00000190: b389 e9bd 9703 c5bc 5970 d5bd ffd2 ecbd
000001a0: 685f 713b 3d9c 053e 4e15 1dbd db04 a83d
000001b0: fe5c b93d bb54 84bd 334c a63d 0837 193e
000001c0: 79a6 aebd 768a 1b3e 8ba4 41bd 7b1a 53be
000001d0: 4203 893d 3c82 3f3d e908 75be df8f fe3d
000001e0: 65cc 0cbe 49fd 0abc 8914 aabd 5d0c 353e
000001f0: 29f3 0ebe e66f bcbd 6a52 d33d b60f 043e
00000200: 1a37 223e 83a1 39bc 6aff 1cbe f393 19bd
00000210: 31fb a93d f9eb cd3d 3eb6 103d b588 fc3c
00000220: a1dd 4a3e a8fc 5cbc cd77 203d 4200 2cb8
00000230: 5bfe 88bd 1883 163e 69d6 0e3e 3c0a 52bd
00000240: a780 ac3d 0257 a13d 8ff6 37be 56aa 033e
00000250: 3605 fe3d 8ff2 883d 93d0 49bd 3436 30bd
00000260: b38d 003d 58be 3cbd c377 813d b8c0 babd
00000270: d91d 113e c6df 233e 4cf2 e43d e2fc c8bd
00000280: 4528 04bb 88a5 4ebe 3906 0f3e 6aa5 90bc
00000290: 5c04 663d 1117 0dbe f6b9 2dbe 1332 f8bd
000002a0: 82a2 0bbe e92d 2dbe 68d8 9a3e 30a1 093e
000002b0: 1cf6 f9bc 730f 17bd 71f8 233e 0676 503e
000002c0: 64bf fb3d a990 06be 1211 d83d 21e1 b63d
000002d0: 9538 72bd 56fa 85bd 38fd 993d f9e2 cabd
000002e0: 6411 d2bd 0051 f2bd 42ed 193e 6764 8d3d
000002f0: c10d 4c3d 2021 473e a5fd 5c3d 3512 71be
00000300: 9e4e 03bc aa1f 02be 6f9e 6cbe 0fb3 753d
00000310: a001 cb3d 95d2 5bbb 1adb c63d 66f3 363d
00000320: 86f9 593b 744d 8a3d 6dd4 483d 0e71 2e3e
00000330: 1804 863d a19e a43d 704e b73d 1835 fe3d
00000340: 7e01 07be 1b82 efbd 2378 1c3e fb48 8c3d
00000350: 237a e2bd 582e eebd 4171 4fbe 3f8f e93b
00000360: a8b9 13be 64e1 043e 6a1d a9bc 6625 c13c
00000370: dcf7 0d3e 16bf ffbd ff36 de3d 506b 573e
00000380: fe39 2f3e b900 d23d 4018 cfbd 7dc6 273e
00000390: 60f3 b13d 82c9 31be 9a8f 1d3e 74b8 81bd
000003a0: cf9d abbd 30cc 15be 1fbc 673e c766 b63d
000003b0: aed6 cbbd 8167 93bd 75e5 0c3e c20e 88be
000003c0: 095b b73d 4e10 48be 2088 c73b 6a12 753e
000003d0: 3708 943d 2e65 6d3e 81f4 b5bd 6bf9 3bbe
000003e0: 6cb3 38bd b9b8 50bb cc94 853d cc01 23be
000003f0: 1bf9 e13d bfc8 7b3d f9e6 5ebe 5f67 f13d

fc3.bias f4 [10]
-0.03276025 0.011955878 -0.051037434 0.124821186 -0.07680576 0.120810464 0.08862491 0.04472291
0.044432577 0.11394642
00000000: 9d2f 06bd 96e2 433c a10c 51bd 40a2 ff3d
00000010: 574c 9dbd 7a6b f73d fa80 b53d 5f2f 373d
00000020: effe 353d be5c e93d
